<resources>
    <string name="app_name">Crypto Manager</string>
    <string name="title_home">Home</string>
    <string name="title_dashboard">Dashboard</string>
    <string name="title_notifications">Notifications</string>
    <string name="hello_world">Hello World!</string>

    <!-- TODO: Remove or change this placeholder text -->
    <string name="hello_blank_fragment">Hello blank fragment</string>
    <string name="title_portfolio">Portfolio</string>
    <string name="title_news">News</string>
    <string name="title_settings">Settings</string>
    <string name="title_markets">Markets</string>
    <string name="base_activity">Base Activity</string>
    <string name="article_activity"></string>
    <string name="article_currency"></string>
    <string name="portfolio_empty">Your watchlist is empty!</string>
    <string name="portfolio_empty_tap">Use the buttons to add something to your portfolio!</string>
    <string name="search_activity">Search</string>
    <string name="splash_activity">Splash</string>
    <string name="transaction_activity_currency">Currency Transaction</string>
    <string name="transaction_activity_fiat">Fiat Transaction</string>
    <string name="picker_currency_activity">Pick Currency</string>
    <string name="picker_exchange_activity">Pick Exchange</string>
    <string name="picker_pair_activity">Pick Pair Currency</string>
    <string name="fiat_activity">FiatActivity</string>
    <string name="withdrawl">WITHDRAWAL</string>
    <string name="deposit">DEPOSIT</string>
    <string name="update_crypto_transaction_activity">Update Crypto Transaction</string>
    <string name="buy">Buy</string>
    <string name="sell">Sell</string>
    <string name="update_fiat_transaction_activity">Update Fiat Transaction</string>
    <string name="internet_required">No internet connection</string>
    <string name="retry">Retry</string>
    <string name="using_offline_data">Using offline data</string>
    <string name="saved_articles_activity">Saved Articles</string>
    <string name="select_currency_activity">Select Currency</string>


    <string name="bitcoin">\u20BF</string>
    <string name="transaction_history_activity">Transaction History</string>
    <string name="error_occurred">An error occurred</string>
    <string name="fiat_transaction_activity">Fiat Transaction</string>
    <string name="crypto_transaction_activity">Crypto Transaction</string>
    <string name="none" />
    <string name="Retry">Retry</string>
    <string name="settings_saved_articles">Bookmarked Articles</string>
    <string name="settings_delete_all_articles">Delete All Articles</string>
    <string name="settings_delete_portfolio">Delete Portfolio</string>
    <string name="settings_select_base_currency">Select Base Currency</string>
    <string name="settings_send_feedback">Send Feedback</string>
    <string name="settings_transaction_history">Full Transaction History</string>
    <string name="settings_share_app">Share this app</string>
    <string name="settings_review_app">Review this app</string>
    <string name="settings_version">Version</string>
    <string name="no_news_available">No news available.</string>
    <string name="model_json">{ "class_name": "Sequential", "config": { "name": "sequential", "layers": [ { "class_name": "LSTM", "config": { "name": "lstm", "trainable": true, "batch_input_shape": [ null, 60, 8 ], "dtype": "float32", "return_sequences": true, "return_state": false, "go_backwards": false, "stateful": false, "unroll": false, "time_major": false, "units": 128, "activation": "tanh", "recurrent_activation": "hard_sigmoid", "use_bias": true, "kernel_initializer": { "class_name": "GlorotUniform", "config": { "seed": null, "dtype": "float32" } }, "recurrent_initializer": { "class_name": "Orthogonal", "config": { "gain": 1.0, "seed": null, "dtype": "float32" } }, "bias_initializer": { "class_name": "Zeros", "config": { "dtype": "float32" } }, "unit_forget_bias": true, "kernel_regularizer": null, "recurrent_regularizer": null, "bias_regularizer": null, "activity_regularizer": null, "kernel_constraint": null, "recurrent_constraint": null, "bias_constraint": null, "dropout": 0.0, "recurrent_dropout": 0.0, "implementation": 1 } }, { "class_name": "Dropout", "config": { "name": "dropout", "trainable": true, "dtype": "float32", "rate": 0.2, "noise_shape": null, "seed": null } }, { "class_name": "BatchNormalizationV1", "config": { "name": "batch_normalization_v1", "trainable": true, "dtype": "float32", "axis": [ 2 ], "momentum": 0.99, "epsilon": 0.001, "center": true, "scale": true, "beta_initializer": { "class_name": "Zeros", "config": { "dtype": "float32" } }, "gamma_initializer": { "class_name": "Ones", "config": { "dtype": "float32" } }, "moving_mean_initializer": { "class_name": "Zeros", "config": { "dtype": "float32" } }, "moving_variance_initializer": { "class_name": "Ones", "config": { "dtype": "float32" } }, "beta_regularizer": null, "gamma_regularizer": null, "beta_constraint": null, "gamma_constraint": null } }, { "class_name": "LSTM", "config": { "name": "lstm_1", "trainable": true, "dtype": "float32", "return_sequences": true, "return_state": false, "go_backwards": false, "stateful": false, "unroll": false, "time_major": false, "units": 128, "activation": "tanh", "recurrent_activation": "hard_sigmoid", "use_bias": true, "kernel_initializer": { "class_name": "GlorotUniform", "config": { "seed": null, "dtype": "float32" } }, "recurrent_initializer": { "class_name": "Orthogonal", "config": { "gain": 1.0, "seed": null, "dtype": "float32" } }, "bias_initializer": { "class_name": "Zeros", "config": { "dtype": "float32" } }, "unit_forget_bias": true, "kernel_regularizer": null, "recurrent_regularizer": null, "bias_regularizer": null, "activity_regularizer": null, "kernel_constraint": null, "recurrent_constraint": null, "bias_constraint": null, "dropout": 0.0, "recurrent_dropout": 0.0, "implementation": 1 } }, { "class_name": "Dropout", "config": { "name": "dropout_1", "trainable": true, "dtype": "float32", "rate": 0.1, "noise_shape": null, "seed": null } }, { "class_name": "BatchNormalizationV1", "config": { "name": "batch_normalization_v1_1", "trainable": true, "dtype": "float32", "axis": [ 2 ], "momentum": 0.99, "epsilon": 0.001, "center": true, "scale": true, "beta_initializer": { "class_name": "Zeros", "config": { "dtype": "float32" } }, "gamma_initializer": { "class_name": "Ones", "config": { "dtype": "float32" } }, "moving_mean_initializer": { "class_name": "Zeros", "config": { "dtype": "float32" } }, "moving_variance_initializer": { "class_name": "Ones", "config": { "dtype": "float32" } }, "beta_regularizer": null, "gamma_regularizer": null, "beta_constraint": null, "gamma_constraint": null } }, { "class_name": "LSTM", "config": { "name": "lstm_2", "trainable": true, "dtype": "float32", "return_sequences": false, "return_state": false, "go_backwards": false, "stateful": false, "unroll": false, "time_major": false, "units": 128, "activation": "tanh", "recurrent_activation": "hard_sigmoid", "use_bias": true, "kernel_initializer": { "class_name": "GlorotUniform", "config": { "seed": null, "dtype": "float32" } }, "recurrent_initializer": { "class_name": "Orthogonal", "config": { "gain": 1.0, "seed": null, "dtype": "float32" } }, "bias_initializer": { "class_name": "Zeros", "config": { "dtype": "float32" } }, "unit_forget_bias": true, "kernel_regularizer": null, "recurrent_regularizer": null, "bias_regularizer": null, "activity_regularizer": null, "kernel_constraint": null, "recurrent_constraint": null, "bias_constraint": null, "dropout": 0.0, "recurrent_dropout": 0.0, "implementation": 1 } }, { "class_name": "Dropout", "config": { "name": "dropout_2", "trainable": true, "dtype": "float32", "rate": 0.2, "noise_shape": null, "seed": null } }, { "class_name": "BatchNormalizationV1", "config": { "name": "batch_normalization_v1_2", "trainable": true, "dtype": "float32", "axis": [ 1 ], "momentum": 0.99, "epsilon": 0.001, "center": true, "scale": true, "beta_initializer": { "class_name": "Zeros", "config": { "dtype": "float32" } }, "gamma_initializer": { "class_name": "Ones", "config": { "dtype": "float32" } }, "moving_mean_initializer": { "class_name": "Zeros", "config": { "dtype": "float32" } }, "moving_variance_initializer": { "class_name": "Ones", "config": { "dtype": "float32" } }, "beta_regularizer": null, "gamma_regularizer": null, "beta_constraint": null, "gamma_constraint": null } }, { "class_name": "Dense", "config": { "name": "dense", "trainable": true, "dtype": "float32", "units": 32, "activation": "relu", "use_bias": true, "kernel_initializer": { "class_name": "GlorotUniform", "config": { "seed": null, "dtype": "float32" } }, "bias_initializer": { "class_name": "Zeros", "config": { "dtype": "float32" } }, "kernel_regularizer": null, "bias_regularizer": null, "activity_regularizer": null, "kernel_constraint": null, "bias_constraint": null } }, { "class_name": "Dropout", "config": { "name": "dropout_3", "trainable": true, "dtype": "float32", "rate": 0.2, "noise_shape": null, "seed": null } }, { "class_name": "Dense", "config": { "name": "dense_1", "trainable": true, "dtype": "float32", "units": 2, "activation": "softmax", "use_bias": true, "kernel_initializer": { "class_name": "GlorotUniform", "config": { "seed": null, "dtype": "float32" } }, "bias_initializer": { "class_name": "Zeros", "config": { "dtype": "float32" } }, "kernel_regularizer": null, "bias_regularizer": null, "activity_regularizer": null, "kernel_constraint": null, "bias_constraint": null } } ] }, "keras_version": "2.2.4-tf", "backend": "tensorflow" }</string>
    <string name="settings_predictor">Currency Predictor</string>
</resources>
